Experimental/Classification/src/ModelBuilding/ag_models/models/NeuralNetFastAI_r37_BAG_L1/S1F5model-internals.pkl (torch, 503761 bytes, 21 tensors)

weight f4 [30]
000000 bf e2 98 3f 20 e3 28 3f 67 fa 49 3f b5 45 91 3f
       1.1944197 0.65971565 0.7889771 1.1349398
000010 8d b7 54 3f c7 fe 8a 3f a3 a6 6c 3f b4 a8 5c 3f
       0.83092576 1.0859002 0.9244177 0.8619492
000020 39 fe 7b 3f fc 54 77 3f 98 7b 74 3f fc 3e 97 3f
       0.9843479 0.9661405 0.9550109 1.1816096
000030 e8 ab 7e 3f 8a 1c 60 3f d8 35 96 3f 57 15 a7 3f
       0.9948106 0.8754355 1.1735182 1.3053387
000040 2d 87 7d 3f bd 58 68 3f 86 44 80 3f 74 fe 45 3f
       0.99034387 0.90760404 1.0020912 0.7734139
000050 fb cc 30 3f 75 22 9c 3f 45 7b 3a 3f 9c e9 91 3f
       0.69062775 1.2198015 0.72844344 1.1399417
000060 9b f1 45 3f 70 9c 7a 3f 63 4d 91 3f 10 f5 41 3f
       0.77321786 0.97894955 1.1351742 0.7576456
000070 07 80 75 3f b0 b8 50 3f
       0.9589848 0.8153181

bias f4 [30]
000000 85 f9 5c 3e a0 d9 90 3e ee a4 81 3d 16 48 98 3d
       0.21579559 0.28291035 0.06330286 0.07435624
000010 3d 16 41 3d ba 81 b8 be 59 46 a0 be b1 2f 94 3e
       0.04714035 -0.36036474 -0.3130367 0.28942636
000020 8a 77 ed 3e 35 cb 9f 3d 94 e2 e4 3c 78 37 4b b9
       0.46380264 0.078024305 0.027940072 -0.00019380252
000030 34 cd 3a bc 0e 7b 94 bd af dd 8c 3d 68 b4 8c bd
       -0.011401463 -0.07250033 0.0687822 -0.06870347
000040 0a c9 84 be e4 3f 01 3b be ad 69 3e 5f 65 9b bc
       -0.2593463 0.001972192 0.22820184 -0.018969236
000050 c6 af 37 3e 3d 6a c3 3e 29 30 96 be 20 fd 01 3e
       0.17938146 0.3816699 -0.29333618 0.12694216
000060 d6 1f 9f 3e 10 00 6b bc e0 dd 83 3e cb d3 25 be
       0.31078976 -0.014343277 0.25755215 -0.16194074
000070 f0 55 49 be 8a 61 ba 3c
       -0.19661689 0.022751588

running_mean f4 [30]
000000 5a 5f 36 bb 0c 69 93 3b 61 77 a2 3b 91 55 7c bb
       -0.002782783 0.0044986065 0.0049580787 -0.003850315
000010 1a 5a 17 3c 72 e8 44 bb 79 dd c5 3b 81 44 93 3c
       0.0092377905 -0.0030045775 0.0060383645 0.017977001
000020 12 28 b3 3b 8b 94 88 3b 35 91 20 bc 8b 94 88 bb
       0.0054674232 0.0041680983 -0.009800245 -0.0041680983
000030 d9 27 22 3c bc 9a 4a 3b 69 ee 4e 3b be 7a 7c bb
       0.009897196 0.0030914983 0.003157521 -0.0038525308
000040 99 99 9e bb 45 e3 4c 3b dd 23 b3 3b 2e 22 0d bc
       -0.0048400876 0.0031263393 0.0054669217 -0.008614106
000050 4b 8a 6c 3b 3d e3 88 3b 87 ab 59 3b 05 35 27 bb
       0.0036093171 0.0041774795 0.003321381 -0.002551378
000060 b0 7f c0 3a fe 47 91 bb 0d 30 49 bc 02 97 04 ba
       0.0014686491 -0.004433631 -0.012279523 -0.00050579023
000070 8a f6 cc b8 13 30 f3 3b
       -9.7733995e-05 0.0074215024

running_var f4 [30]
000000 1c 32 7c 3f 37 c6 7b 3f d6 c3 7c 3f 63 0f 80 3f
       0.9851396 0.98349327 0.9873632 1.0004696
000010 5a 45 80 3f 63 25 80 3f 00 58 81 3f 7e 51 80 3f
       1.0021164 1.001141 1.010498 1.002487
000020 49 f9 80 3f ac 4a 80 3f 9f 36 80 3f ac 4a 80 3f
       1.0076076 1.0022788 1.0016669 1.0022788
000030 14 43 81 3f 94 fd 72 3f c1 29 80 3f 4d 22 7c 3f
       1.0098596 0.9491818 1.0012742 0.9848984
000040 8a 2a 80 3f 90 65 76 3f 38 f9 80 3f 53 67 80 3f
       1.0012982 0.9624872 1.0076056 1.0031532
000050 07 7e 80 3f c5 97 80 3f 76 a4 7e 3f 3b c6 7e 3f
       1.003846 1.0046316 0.994697 0.99521226
000060 9b 75 7f 3f fb 52 7f 3f 76 c6 80 3f 21 14 6c 3f
       0.99788827 0.99735993 1.0060565 0.92218214
000070 4f 89 80 3f 77 e8 83 3f
       1.0041903 1.0305318

weight f4 [400, 30]
000000 b6 46 fa bd 3c a8 19 3e 2b 37 83 bd 78 5a c4 bd
       -0.12220518 0.15005583 -0.06407007 -0.09587568
000010 1a 37 10 be c9 d9 50 3d e2 4c f8 bd 92 7c 2a 3e
       -0.1408352 0.050988946 -0.12124039 0.16649082
000020 07 85 b5 bd a1 1a c9 3d 6d c7 81 bd ec c3 c4 bd
       -0.088632636 0.09819532 -0.063368656 -0.09607682
000030 68 06 c1 be 11 f5 fe bd cc 78 36 be 10 25 d3 b9
       -0.377002 -0.124490865 -0.17819518 -0.0004027267
000040 0f 57 f7 3d f2 9c 62 3e 84 11 3a be 2e 8e f6 bd
       0.12077152 0.22130182 -0.18170744 -0.120388374
000050 1e a7 5d 3e 1e 22 ad 3d 16 e6 3a 3d 0e 68 0b 3e
       0.21645781 0.08453773 0.045629583 0.13613912
000060 8a 90 0e be ac 00 86 3d df e2 95 3e 68 05 1b be
       -0.13922325 0.06543097 0.2927465 -0.15138781
000070 70 34 94 bd 56 07 10 3d 7c de 73 bd 60 43 63 3e
       -0.07236564 0.035163246 -0.05953835 0.2219367
000080 e0 65 87 bd f5 c0 23 be 2c 5d 3e 3d 8c ed 81 be
       -0.06611228 -0.15991576 0.046475574 -0.25376546
000090 e0 62 88 bc fb a2 49 3e df 65 03 3e 56 eb c8 3d
       -0.01664871 0.19691078 0.1283183 0.09810512
0000a0 2e f9 38 ba 95 58 cb bd a7 b9 24 3e d1 96 f3 bd
       -0.00070561736 -0.09929005 0.16086446 -0.11894
0000b0 96 0d 65 be b7 95 8c 3d 30 61 f9 3c a5 dd 0c 3e
       -0.22368464 0.06864493 0.03044185 0.13756426
0000c0 1b ac 25 bd 0a 6d fe 3b 36 f1 3e 3e 6e 80 87 3e
       -0.040447336 0.0077644633 0.18646702 0.26465172
0000d0 3d 0e 77 3d bf 49 ba 3d 05 e8 7c 3d f8 05 a9 be
       0.060316313 0.09096097 0.06174471 -0.33012366
0000e0 cd e5 60 bd 69 47 b2 bd a2 b3 88 be da 8e f6 bd
       -0.054906655 -0.08705027 -0.2669955 -0.120389655
0000f0 83 bf bb bd 06 f1 5f 3c 34 42 1f be 78 b8 6e 3e
       -0.09167387 0.013668304 -0.15552598 0.23312557
000100 66 d7 3b bc cf 77 12 3e a8 e1 ae 3b 4c 55 03 be
       -0.011464929 0.14303516 0.005336959 -0.12825507
000110 09 d0 28 3e 5c e5 cb 3d c7 c9 7a be c0 9c 82 3c
       0.16485609 0.09955856 -0.24491034 0.015943885
000120 a7 3e 22 3e 64 33 c3 3d 67 22 99 3c 6f e1 fc 3d
       0.15844212 0.09531286 0.018693162 0.123476855
000130 56 19 2e 3e aa 3e 73 be 44 60 8a 3d 5e 2f 30 be
       0.17001852 -0.23754373 0.067566425 -0.17205569
000140 3d b2 91 be a2 7f 61 3d a9 77 9f 3e 7a 18 03 be
       -0.28456298 0.05505336 0.3114598 -0.12802306
000150 b3 c9 5e be 8d 60 38 be 05 58 db bd 9d c0 6c be
       -0.2175663 -0.18005581 -0.10710148 -0.23120351
000160 af 07 7b bd 7f f0 25 bc 80 3c e8 bd e3 11 b4 3d
       -0.061286625 -0.0101281395 -0.113396645 0.08792474
000170 ab c7 17 3e fc d2 05 3e 50 1e 6f be e9 6f 34 be
       0.14822261 0.13068765 -0.23351407 -0.17620815
000180 2e 5e c8 3d 59 27 8d bc d9 92 30 bd 46 9a 51 be
       0.09783588 -0.017230676 -0.043108795 -0.20469007
000190 28 ab b6 3e ee d3 69 3e 94 7a 04 be 2b 98 ea bd
       0.35677457 0.22834751 -0.12937385 -0.11454805
0001a0 16 2a 43 be 7c c0 94 3d e5 c1 69 bd 11 0d 07 be
       -0.19059023 0.07263276 -0.057069678 -0.13188578
0001b0 e8 56 b3 3d cf 60 90 3e 65 77 54 be 74 37 2b 3e
       0.087568104 0.2819886 -0.2074867 0.16720372
0001c0 ca f3 7f 3d b2 76 53 3e 6c 2e 3d 3d fa 18 8a be
       0.062488355 0.20650747 0.04618685 -0.2697218
0001d0 b1 d0 32 3d b1 5b 2a bd af ef 1c bc 9d b6 d6 bd
       0.043656055 -0.04159135 -0.009578629 -0.104840495
0001e0 9f 3c 38 3e 5f bb c5 bc 38 3d 0c be c4 19 bc 3c
       0.17991875 -0.024137197 -0.13695228 0.022961505
0001f0 70 96 06 be 2d 1d 76 3c 93 55 f4 3c df f7 3f be
       -0.13143325 0.0150216045 0.029825961 -0.18746899
000200 21 86 58 bd 2d e4 33 be d3 da 63 be 50 9b a0 3d
       -0.05286229 -0.17567511 -0.22251444 0.078421235
000210 c0 06 97 3d 25 8c 9b bd af df e7 3e 2e 8e 2a be
       0.07374334 -0.0759509 0.45287845 -0.166558
000220 ac 63 75 bd 72 51 b2 bd f8 75 33 3d 88 b0 ba bb
       -0.059909508 -0.08706941 0.043813676 -0.0056973137
000230 27 bb 4c 3e de 09 92 3d f0 7a e6 3e dd 45 74 bd
       0.19993268 0.07130788 0.4501567 -0.05963694
000240 a8 df 4c 3c f9 d1 df bd c9 5d 65 3d 17 50 17 be
       0.012504496 -0.10928721 0.055997644 -0.14776646
000250 c3 9c 9a 3d 84 eb 3a bd d5 91 74 be e3 19 4f be
       0.07549431 -0.04563476 -0.23883756 -0.20224719
000260 88 81 81 bd dd 8b e9 3d a7 e0 24 3b f8 08 ca bd
       -0.06323534 0.1140363 0.0025158317 -0.09864992
000270 ee bd 28 3d 38 5c 49 be 02 2a 65 bd 9e 95 9a 3d
       0.041196756 -0.19664085 -0.055948265 0.075480685
000280 e9 97 f9 bc 13 bf 4a be 06 64 4d be e3 80 76 be
       -0.030467944 -0.19799452 -0.20057687 -0.24072604
000290 19 99 e3 3d 25 91 c0 bc c0 38 82 bd 56 11 17 3b
       0.111131854 -0.02350671 -0.063584805 0.0023051105
0002a0 d5 e4 32 be b4 02 97 bd 29 bb 30 3d b9 d3 1e be
       -0.17470105 -0.073735625 0.04314724 -0.15510453
0002b0 97 c5 95 3e aa e3 59 3e 3d de 50 bd 5e e1 b1 3d
       0.29252312 0.21278253 -0.050993193 0.086855635
0002c0 21 6d 62 bb ac b1 ce bd 79 55 62 3e 82 be 6c be
       -0.003454991 -0.10092482 0.22102918 -0.23119548
0002d0 cf aa 84 3e 7a 3c 5c be 13 b5 16 bd 1d ce 8b 3e
       0.25911567 -0.21507445 -0.03679378 0.2730569
0002e0 09 ce 62 bd 02 3e 8c 3e 5e 4b a6 be 72 22 64 bd
       -0.05537227 0.27391058 -0.32479376 -0.055696912
0002f0 be 72 88 bd 66 83 45 3e c6 b2 2b be 76 98 b5 3c
       -0.0666251 0.19288406 -0.16767415 0.022167426
000300 29 86 85 be 4b aa 3e be fd 56 82 3d 5c 62 87 be
       -0.2607892 -0.18619649 0.06364248 -0.2644223
000310 d4 69 dd 3d ee be fb bd 33 6d b4 bc ab b3 52 be
       0.10811201 -0.12292276 -0.022024726 -0.2057635
000320 24 57 fe bd 79 4b 4f be 77 54 37 be 5e 78 82 be
       -0.124189645 -0.20243634 -0.17903315 -0.25482458
000330 e6 63 89 3d 03 04 a9 3e da de c1 3c 27 ab 97 bd
       0.06708507 0.33010873 0.023665834 -0.074056916
000340 6a 11 10 3e 84 4e 78 bc 11 08 61 bd 9a 70 ac bc
       0.14069143 -0.015155438 -0.054939333 -0.021049786
000350 fe 51 62 3d e4 bf 75 be 7b e9 82 3c 4e a0 ca 3c
       0.055253975 -0.23998982 0.015980473 0.024734642
000360 d7 e3 c0 bd c4 e2 30 bc 00 c2 bf 3d 56 70 c2 3c
       -0.09418457 -0.010796253 0.093631744 0.023735207
000370 39 d9 28 3d e2 e8 d1 ba ba e1 a9 3d 8e a1 21 3c
       0.041222785 -0.0016014839 0.08295007 0.009865178
000380 c3 65 46 be 27 ca b0 3d 93 ad a7 be 8f 2e 61 bc
       -0.19374757 0.086323075 -0.32749614 -0.013744011
000390 81 f9 db bd d3 ab b8 bc fb 1b 6b bd 51 19 76 3e
       -0.107409485 -0.02254287 -0.05739973 0.24033095
0003a0 8c d5 93 3c eb 35 d8 3e c6 28 fd 3d 04 37 a2 be
       0.018046163 0.42228636 0.123612925 -0.316826
0003b0 0e 0a cb 3d 0a 43 b3 bc 20 75 c3 b9 34 86 e4 3d
       0.09914027 -0.021882553 -0.00037280563 0.1115841
0003c0 55 63 c0 3e b4 15 1d bc 1c d1 2d be ea f3 3f 3d
       0.37575784 -0.009587694 -0.169743 0.046863474
0003d0 9e d1 70 3d 9b ec 83 be 3c 41 2a 3e 9c 3c d7 be
       0.058793657 -0.25766453 0.16626447 -0.4203843
0003e0 0d ba 01 3e c2 6d 82 be 1c 18 8d 3d 34 c8 62 3e
       0.12668629 -0.25474364 0.06889364 0.22146684
0003f0 cf 62 ef bd 5e 2d 1c be 8b 9f 01 3e fb 6b 37 be
       -0.11688768 -0.15251681 0.12658517 -0.17912285

weight f4 [400]
000000 5f dd 8c 3f d5 3c 58 3f 9c fd 60 3f 45 07 54 3f
       1.1005057 0.8446782 0.8788698 0.8282359
000010 ea 96 46 3f db 02 47 3f 49 cd 80 3f bb 41 75 3f
       0.77574027 0.7773873 1.0062648 0.9580342
000020 ba 33 72 3f 78 43 9e 3f bc 04 83 3f 11 9d 82 3f
       0.9461018 1.236434 1.023582 1.0204183
000030 72 4c 96 3f bf 31 94 3f d7 86 8d 3f da 9f 58 3f
       1.1742079 1.1577681 1.1056775 0.84618914
000040 df 32 9c 3f 24 69 94 3f 44 8b 1e 3f 89 b0 8d 3f
       1.2203025 1.1594586 0.6193125 1.1069499
000050 6d 1a 6a 3f 2b 68 8c 3f fc b4 99 3f dc 59 6d 3f
       0.9144657 1.096929 1.2008357 0.9271524
000060 92 11 7f 3f d2 92 a2 3f 54 62 95 3f ff 2d 92 3f
       0.99636185 1.2701056 1.1670632 1.1420287
000070 2b 8e 7f 3f ba 9e 7d 3f 6b 72 4b 3f 7f b9 58 3f
       0.99826306 0.9907032 0.7947146 0.84658045
000080 6a 8b 6e 3f a1 8c 60 3f b5 69 58 3f 30 48 64 3f
       0.9318148 0.8771458 0.84536296 0.8917265
000090 8b eb 92 3f 5a ea 66 3f 00 35 59 3f c1 02 7c 3f
       1.1478132 0.9020134 0.84846497 0.984417
0000a0 bc 30 86 3f 17 4c 5e 3f a6 e6 8c 3f 84 58 8f 3f
       1.0483623 0.86834854 1.1007888 1.1198888
0000b0 e8 c3 4e 3f 15 5f 8a 3f 19 8d 82 3f a9 a1 59 3f
       0.8076768 1.0810267 1.019931 0.850123
0000c0 e0 36 99 3f 2f cc 8a 3f 39 bd 66 3f 29 ba 7e 3f
       1.1969872 1.0843562 0.9013248 0.9950281
0000d0 8e 97 7d 3f 5a f8 59 3f 05 6b 66 3f ee 03 94 3f
       0.9905938 0.8514458 0.9000705 1.1563699
0000e0 dc 8d 87 3f 71 a5 27 3f 2f d2 a1 3f 25 8c 49 3f
       1.0590167 0.6548682 1.2642268 0.7872947
0000f0 a6 6b 43 3f d8 6f 8e 3f 7a 83 8a 3f e4 e4 8e 3f
       0.76336133 1.1127882 1.0821373 1.1163602
000100 c3 47 82 3f b9 a4 60 3f 30 8e 48 3f 0a 52 74 3f
       1.017815 0.87751347 0.7834196 0.9543768
000110 1d 04 7d 3f 57 9c 6e 3f 15 52 8c 3f 86 bd 8a 3f
       0.988344 0.93207306 1.096255 1.0839088
000120 78 51 8a 3f fa 2a a4 3f c7 c0 8e 3f 54 64 81 3f
       1.0806112 1.2825615 1.1152581 1.0108743
000130 8c 11 b4 3f c0 30 67 3f bd ac 69 3f c5 b3 84 3f
       1.4067855 0.9030876 0.912792 1.0367361
000140 1a 3a 81 3f 4b fb 8f 3f 03 e4 8f 3f 81 42 5d 3f
       1.0095856 1.1248564 1.1241459 0.864296
000150 6a 1c 96 3f 19 9f 84 3f b3 fc 6a 3f 21 fd 5c 3f
       1.1727421 1.0361053 0.9179184 0.86323744
000160 4e 03 75 3f 64 d0 90 3f 09 c4 77 3f 34 61 82 3f
       0.9570817 1.1313596 0.967835 1.0185914
000170 1e 8c 82 3f 2c 6d 81 3f d3 0c 8b 3f fd 2b 7d 3f
       1.019901 1.0111442 1.0863289 0.98895246
000180 13 07 84 3f c6 6b 6b 3f 65 8d 70 3f 6b cc 51 3f
       1.0314659 0.91961324 0.9396575 0.8195254
000190 24 ab 5e 3f cb 44 82 3f 15 ac b4 3f 32 82 8b 3f
       0.8697989 1.0177244 1.4115015 1.0899107
0001a0 b7 61 81 3f 81 c8 8f 3f f7 4d 97 3f fb e4 61 3f
       1.0107945 1.1233064 1.1820668 0.8824002
0001b0 76 6c 41 3f 82 1d 88 3f b3 32 69 3f 9f b8 80 3f
       0.75556123 1.0634005 0.91092986 1.0056342
0001c0 11 b9 75 3f f5 c5 9a 3f 16 c1 8e 3f 63 99 b2 3f
       0.95985514 1.2091662 1.1152675 1.395306
0001d0 a4 bb 91 3f 6b 25 65 3f 3f d5 91 3f a5 e5 7c 3f
       1.1385388 0.8951022 1.1393203 0.9878791
0001e0 d8 46 7e 3f 01 f3 65 3f 85 de 73 3f cd 8f a8 3f
       0.9932685 0.8982392 0.9526141 1.3168885
0001f0 27 36 88 3f fe a9 7e 3f d8 bd 43 3f d2 08 85 3f
       1.0641526 0.9947814 0.76461554 1.0393317
000200 64 33 64 3f b4 aa 70 3f b8 ba 6c 3f 9c e0 7a 3f
       0.89140916 0.9401047 0.9247241 0.97998977
000210 02 e0 56 3f 86 79 77 3f 3e 28 88 3f 87 9f 47 3f
       0.8393556 0.96669805 1.0637281 0.77977794
000220 87 11 9a 3f 14 d9 51 3f 56 9a 69 3f 07 68 87 3f
       1.2036599 0.8197186 0.9125112 1.0578622
000230 de be 70 3f 09 e7 54 3f 6f 23 86 3f 46 7e 5c 3f
       0.9404124 0.8316503 1.0479563 0.8613018
000240 8e a9 7c 3f db 39 bc 3f b4 40 67 3f 48 56 93 3f
       0.9869622 1.4705156 0.90333104 1.1510706
000250 51 63 59 3f ce f9 8a 3f 06 c9 35 3f 40 73 87 3f
       0.8491717 1.0857484 0.7100986 1.0582047
000260 32 7d 8d 3f 86 de 6f 3f d1 0b 63 3f d2 af 82 3f
       1.1053832 0.9369892 0.88689905 1.0209906
000270 84 40 95 3f f5 64 8c 3f f1 d7 84 3f f7 20 8d 3f
       1.1660314 1.096831 1.03784 1.1025685
000280 3b e5 80 3f 89 b9 9b 3f a5 1e 6b 3f 54 cf 9d 3f
       1.0069956 1.2165996 0.91843635 1.2328897
000290 95 2e 63 3f 10 74 5e 3f d4 d4 65 3f a4 d2 80 3f
       0.88742954 0.8689585 0.89777875 1.0064282
0002a0 85 6d 3e 3f c1 a7 79 3f 50 8f 86 3f bd d7 67 3f
       0.74385864 0.975216 1.0512486 0.90563565
0002b0 75 9e 83 3f d3 1d ac 3f 4e 0c 2e 3f 5f c7 80 3f
       1.0282732 1.3446602 0.67987525 1.0060843
0002c0 23 c3 30 3f 9b 96 6a 3f 3b 90 84 3f cf 48 81 3f
       0.69047755 0.91636056 1.0356516 1.0100344
0002d0 0b 81 3f 3f af b0 88 3f b1 8b 8c 3f e4 a3 66 3f
       0.7480628 1.067892 1.098013 0.9009383
0002e0 80 6f 56 3f 49 95 8a 3f 22 9c 77 3f 11 85 76 3f
       0.83763885 1.0826808 0.96722615 0.96296793
0002f0 b4 01 4d 3f 8c d5 85 3f b8 4f 8d 3f 1d 4e 77 3f
       0.80080724 1.0455794 1.1039953 0.96603566
000300 6d dd 83 3f d0 07 8e 3f 65 e8 91 3f 3e 79 47 3f
       1.0301949 1.1096134 1.1399046 0.77919376
000310 ad a6 62 3f a3 df 84 3f b6 4f 84 3f 89 52 69 3f
       0.8853558 1.0380749 1.0336826 0.91141564
000320 46 e2 7c 3f 56 87 3e 3f 64 89 7a 3f 04 b7 7b 3f
       0.98782766 0.74425256 0.9786589 0.98326135
000330 12 a4 83 3f e9 de 6a 3f 27 3c 7c 3f 95 de 8a 3f
       1.0284445 0.91746384 0.98529285 1.0849177
000340 f3 df 98 3f 44 d9 a9 3f f1 eb 63 3f eb d6 59 3f
       1.1943344 1.3269429 0.89031893 0.85093564
000350 ee 1e 54 3f a1 cd 64 3f aa 88 93 3f 4e 67 8c 3f
       0.82859695 0.89376265 1.1526082 1.0969026
000360 4b a5 80 3f ed 43 53 3f 8b 73 95 3f 5c 15 80 3f
       1.0050443 0.8252552 1.1675886 1.0006518
000370 bc 0e 66 3f fa c6 92 3f 52 83 5e 3f 02 35 81 3f
       0.8986623 1.1466973 0.8691913 1.0094302
000380 f7 24 46 3f e7 82 7d 3f d6 17 58 3f f6 fa 95 3f
       0.77400154 0.99027866 0.8441137 1.1717212
000390 3d 83 85 3f 1e 9e 83 3f bf 89 6b 3f 3a 76 8c 3f
       1.0430676 1.0282629 0.9200706 1.097358
0003a0 b0 98 7b 3f 0b b7 5a 3f 85 e1 59 3f 51 1d a5 3f
       0.9827986 0.8543555 0.8510974 1.2899572
0003b0 6c 4a 6c 3f 4f 17 49 3f f8 f9 55 3f 87 f8 a6 3f
       0.9230106 0.7855119 0.8358455 1.3044595
0003c0 fa 36 91 3f 81 64 73 3f d1 4d 7d 3f 78 88 3a 3f
       1.1344903 0.9507523 0.98946863 0.72864485
0003d0 01 de 4b 3f 94 25 92 3f 43 a6 39 3f 18 f6 77 3f
       0.79635626 1.1417718 0.7251932 0.96859884
0003e0 0f f3 2d 3f e0 32 86 3f f8 8f 6b 3f df 4e 89 3f
       0.67949003 1.0484276 0.92016554 1.0727195
0003f0 0c a4 7d 3f 94 4c 68 3f b8 ce 98 3f 25 1d 98 3f
       0.9907844 0.9074185 1.1938086 1.1883894

bias f4 [400]
000000 cf 19 8c 3d 54 02 89 3e 95 ca 5a be e6 ac 53 3e
       0.0684086 0.2675959 -0.21366341 0.20671424
000010 96 82 09 be 94 11 37 be 18 81 8c 3d d7 89 36 3e
       -0.13428721 -0.178778 0.0686056 0.17826019
000020 28 c5 f3 3c f4 bb 41 3d 6f 53 d0 bd 68 80 5f 3e
       0.029757097 0.047298387 -0.10172164 0.21826327
000030 12 b8 04 bd 7f 5e d1 bd 0b 4f e6 3d 24 5f 7e 3e
       -0.032402106 -0.10223102 0.11245545 0.24840981
000040 2e 3b 72 3d 2a f0 db bd ff 4b ca bd 07 6b 57 be
       0.05913847 -0.10739167 -0.09877776 -0.21036921
000050 50 53 e4 3d d5 48 0e be bb 1b 10 bd 64 f8 67 3e
       0.11148703 -0.1389497 -0.035182696 0.22653347
000060 91 0c a9 be 6b 2d 88 3d 0e a8 3d be 1a 98 22 3e
       -0.330174 0.06649288 -0.18521139 0.15878335
000070 9a 54 57 bd 15 ec 5b 3e 2e ff 12 be 36 24 0b 3e
       -0.052570917 0.21476777 -0.14355156 0.13588032
000080 af 45 48 bd 1c 27 19 be d3 5f 15 3d a0 42 e8 3c
       -0.04889458 -0.14956325 0.03646834 0.028352082
000090 c0 9d a9 bd d6 99 3f 3d 2d 33 56 3d d8 97 e6 bd
       -0.082820415 0.04677757 0.0522949 -0.11259431
0000a0 c8 8d ad be b9 66 94 3d 52 dc ac bd 3f 30 7b bd
       -0.33897233 0.07246155 -0.0844046 -0.061325308
0000b0 de 10 bd bd 16 35 09 3e 19 b8 47 3e 8f 5a c1 3d
       -0.09231733 0.13399157 0.19503821 0.09441101
0000c0 c5 b8 3b be 6b f3 0e be 90 f4 8c 3b 23 67 df bd
       -0.18332203 -0.13960044 0.004301615 -0.10908344
0000d0 93 64 98 3c 0c f2 2a be b7 7c 9f 3e ff 73 54 3c
       0.018602645 -0.16693896 0.31149837 0.012967109
0000e0 f9 b0 83 bd 70 b9 5d 3d f0 30 79 3d 38 0f 00 3e
       -0.06430239 0.054131925 0.060837686 0.12505805
0000f0 91 1c f3 3d 54 a1 dc 3b d9 05 15 3d 1a bb 9c 3c
       0.11870683 0.006733099 0.03638253 0.019132186
000100 06 9d 15 be 4a f8 06 3d cc 0d 3e 3d a7 71 d8 bd
       -0.14610681 0.03295163 0.046399876 -0.105685525
000110 85 48 60 3e 2d b1 76 3e ee c2 38 be cb 5e 05 3e
       0.21902664 0.24091025 -0.1804311 0.13024442
000120 e1 a5 cf bd bb b2 5f bd dd 53 5d bd 9d 17 4c bd
       -0.10139061 -0.05461381 -0.054035056 -0.049827207
000130 d4 ac 5c 3e aa be b1 3e cd 64 76 be d9 2f 76 3e
       0.21550304 0.34715778 -0.2406189 0.2404169
000140 a5 c8 d8 bd 9f e8 80 3d 80 12 c8 3d ae 30 3b 3d
       -0.10585145 0.06294369 0.097691536 0.04570072
000150 9d 40 ca bc 74 b2 91 be d2 bf 43 3d 43 44 fc bb
       -0.024689013 -0.2845646 0.047790356 -0.007698567
000160 57 d1 e7 3d c2 32 5d bd 48 0f a9 3c 4e 33 ac 3d
       0.11319225 -0.054003485 0.02063717 0.08408223
000170 6e 23 95 be 7f cb ef 3c a0 d3 34 3c ee 61 3b be
       -0.29128593 0.02927184 0.011036783 -0.18299076
000180 42 52 a2 3e d3 e7 02 3e 04 8d fe bb 80 f1 5e 3e
       0.31703383 0.12783746 -0.007768275 0.21771812
000190 4e c3 9b 3d 3c 37 d4 bc b0 bc e8 3d 29 2f b7 3e
       0.07605611 -0.025905244 0.11364114 0.35778168
0001a0 7e 6a 90 bd 78 b3 cc bd 00 e2 4c be 79 1e 3e 3d
       -0.07051562 -0.099951684 -0.20008087 0.04641578
0001b0 58 d4 d8 3d 57 bb 16 3e af ff 92 3b 14 21 bd 3d
       0.10587376 0.14719902 0.0044860463 0.09234825
0001c0 ca a3 18 bd cd ab 73 3e 52 fc b2 3d 85 2e 35 be
       -0.037265576 0.23796006 0.087395325 -0.17693527
0001d0 e3 d6 04 3e 3f 58 01 3c 3e 9c da 3d 7c 2c 90 3a
       0.12972598 0.007894575 0.10674332 0.0010999586
0001e0 29 1e d0 bd 13 85 69 3e 49 83 11 3e 7b c9 c3 3c
       -0.101620026 0.2280467 0.14210238 0.023899784
0001f0 0a 45 ce 3d db a5 46 be 0a 59 12 3e e2 22 8c 3d
       0.10071762 -0.19399206 0.14291778 0.06842591
000200 82 c1 f6 bd 90 09 79 bc d4 b5 0b be c2 f9 30 bd
       -0.120486274 -0.015200034 -0.1364358 -0.043206938
000210 5d 58 bd 3d 0f ee e4 3c 2d 3a 04 3d 89 cb 65 be
       0.092453696 0.027945546 0.032282043 -0.22440924
000220 e9 a6 b9 3e bb a0 81 be a0 43 d7 bd 02 8c a0 bc
       0.36260155 -0.2531794 -0.10510945 -0.01959801
000230 30 a9 9a 3d 23 ee 17 bc 3d 66 b0 bc b6 4c 3b 3d
       0.07551801 -0.009273085 -0.021533126 0.045727454
000240 a9 c6 84 3e e4 a6 55 3d 28 6e f9 bd 65 ce 17 3e
       0.25932816 0.052161112 -0.12179214 0.14824827
000250 51 4a 24 3e a3 14 3e be ba 48 3e 3e a2 d9 8e be
       0.16043974 -0.1856256 0.1858243 -0.27900416
000260 ed b0 3c be a0 54 be bc c2 03 05 3e 42 4d 6a bd
       -0.18426867 -0.023233712 0.12989715 -0.057202585
000270 12 51 b8 3c 66 08 94 3e 6c 61 9b bd d9 77 88 3e
       0.022499595 0.28912657 -0.07586941 0.26653937
000280 b3 96 1d 3d 52 99 07 bd 70 ca a2 3d 29 5f d4 be
       0.038473796 -0.033105202 0.07948768 -0.4147885
000290 e3 ef da bd e8 35 4b be ca ec 11 be 0a b1 29 bd
       -0.10690286 -0.19844782 -0.14250484 -0.041428603
0002a0 99 fa 23 3e b6 88 6c 3d de de ca bd 82 ad 4f 3d
       0.16013564 0.057747565 -0.0990579 0.05070258
0002b0 e8 4d 71 be ff a9 05 3e ab e9 42 3c d2 d7 24 3d
       -0.23564875 0.1305313 0.011896531 0.040244885
0002c0 e2 95 be 3d 6d 09 2b 3e 30 bf 70 3b 3b 59 39 be
       0.09305932 0.16702814 0.003673505 -0.18100445
0002d0 5f 1a 3f 3d 33 78 1d 3e 7a 0b 46 bd 7c e9 11 bc
       0.04665601 0.15377884 -0.04835079 -0.008905765
0002e0 bf f9 59 3d e9 ac b2 3d 51 79 cf 3d 6d 24 1c 3e
       0.053216692 0.08724386 0.10130561 0.1524827
0002f0 35 95 b0 bd 90 be c4 3d 7d 60 3d 3e ef fc 18 be
       -0.08622209 0.096066594 0.18493839 -0.14940237
000300 df 76 88 3d a5 8b 31 3e 30 00 39 3e 4d 0a c0 bd
       0.06663298 0.17338426 0.18066478 -0.09376965
000310 5d 49 01 bd 88 8f 63 3d 5d 0f 9e bd 2f 64 f6 bd
       -0.031564105 0.055556804 -0.07717774 -0.12030827
000320 29 85 9f 3d e5 76 84 be 81 d8 4a bd 2d ad d3 bd
       0.0778907 -0.2587196 -0.04952288 -0.10335765
000330 6a 80 e1 bc b1 76 94 3e 20 73 44 be 26 2b 18 3c
       -0.027527053 0.28996804 -0.19184542 0.009287631
000340 61 fa b8 3d b0 4b 33 bd d6 89 a6 3d d7 87 3a 3e
       0.09032131 -0.043773353 0.08131759 0.18215881
000350 d6 65 9b 3d 90 0a 71 bd 8f b0 76 be 8b 4b be 3d
       0.07587783 -0.058847964 -0.2409079 0.092917524
000360 52 fe 75 bc c1 71 f0 3c fb ee b6 3d 57 6b 46 3e
       -0.015014248 0.029351117 0.08932301 0.19376884
000370 bc 85 ca bd ed ad ec bc c6 5d 6f 3e 06 6f b1 bd
       -0.09888789 -0.028891528 0.23375615 -0.08663754
000380 e7 cf 1e be 18 f7 63 3d ff a7 69 3d a5 33 7a 3d
       -0.15508996 0.05565557 0.05704498 0.06108441
000390 28 65 b9 3d 47 2e 0b 3e 12 44 84 3b 14 a9 88 3b
       0.09052497 0.13591872 0.004036435 0.0041705463
0003a0 37 7d a3 bd 85 6d 1b be 88 7a aa bd 24 66 22 3e
       -0.07982867 -0.15178497 -0.08324152 0.15859276
0003b0 36 a4 fe bc 10 cf 93 3e 86 c6 57 bc a0 b0 59 3a
       -0.031084161 0.28868914 -0.01316989 0.0008304212
0003c0 46 7c 01 3d 66 c9 8b bd 6c 87 69 3d 58 a0 42 3e
       0.031612657 -0.06825523 0.057013914 0.19006479
0003d0 7e 99 51 3e 61 47 dc bd 76 97 b3 3b 2a bf 12 be
       0.20468709 -0.10755802 0.005480702 -0.14330736
0003e0 22 de f0 bd 50 f6 5a 3b 9c a5 83 3b 2f e3 07 bd
       -0.117611185 0.0033410974 0.004017545 -0.033175644
0003f0 8a 7e bd bd 43 64 08 3e 2f 0f 80 bd 2d 39 24 3e
       -0.09252651 0.13319497 -0.06252896 0.16037436

running_mean f4 [400]
000000 3b 00 9e 3e 59 4a ff 3e fa 59 7f 3e 93 d2 ce 3e
       0.3085955 0.4986141 0.24936667 0.4039503
000010 ed 1f 88 3e 1a 87 b6 3e fa 26 d0 3e 6b 6a ab 3e
       0.26586857 0.3564995 0.40654737 0.33479628
000020 4b 5f d6 3e 66 5c 84 3e 7e 26 bf 3e 9f c8 98 3e
       0.41869578 0.25851744 0.37334055 0.29840562
000030 7c 83 83 3e 02 0f 74 3e 06 2e 67 3e 82 07 8e 3e
       0.25686252 0.2383385 0.2257615 0.27740103
000040 ac 86 89 3e e8 c2 f6 3e d0 61 84 3e 71 8f b8 3e
       0.2686056 0.48195577 0.25855875 0.36046937
000050 54 89 9b 3e 45 5a 9f 3e 89 4a 94 3e ce c4 b7 3e
       0.3037821 0.31123558 0.28963116 0.35892338
000060 78 cb b7 3e f1 49 80 3e 00 57 fe 3e 56 de 5c 3e
       0.35897422 0.25056413 0.4967575 0.2156919
000070 0a c3 be 3e fa c7 73 3e 3d 55 95 3e b8 b9 86 3e
       0.37258178 0.23806754 0.29166594 0.26313567
000080 d9 95 8a 3e 19 0a 94 3e 24 e4 a1 3e dd d8 bf 3e
       0.2706745 0.28913954 0.3161937 0.3747014
000090 5c 98 29 3e 94 df 64 3e 0e 44 be 3e 59 3f 8e 3e
       0.16562027 0.22350913 0.37161297 0.27782705
0000a0 94 6e af 3e 5d aa 41 3f 99 cd 35 3e 0a 06 a8 3e
       0.34264052 0.7565058 0.1775421 0.32817107
0000b0 80 2d 8f 3e 4d 20 bb 3e a0 21 c0 3e a3 89 4f 3e
       0.279644 0.3654808 0.37525654 0.20267348
0000c0 9d 7a 8b 3e 55 77 df 3e 6c f5 95 3e d3 68 bc 3e
       0.27241984 0.4364573 0.29288805 0.36798725
0000d0 67 5d 77 3e 94 eb 97 3e b4 70 88 3e aa 9a c0 3e
       0.24156724 0.2967192 0.26648486 0.37618
0000e0 7c 11 8c 3e de 36 9c 3e 9e 61 92 3e 58 59 8a 3e
       0.2735709 0.3051061 0.285901 0.2702129
0000f0 de ac b7 3e 8f 13 ab 3e 5b 9f fa 3e 59 59 ec 3e
       0.35874075 0.3341336 0.48949704 0.46161917
000100 6c ef 51 3e 2a e2 cc 3e c5 a3 f6 3e 60 31 b1 3e
       0.20501488 0.400163 0.4817182 0.34607983
000110 75 46 74 3e 56 cd 71 3e b6 7b be 3e 3b 00 a2 3e
       0.23855002 0.23613486 0.3720376 0.316408
000120 b9 50 5a 3e 0d a8 6c 3e d1 2b 78 3e d3 8d 18 3f
       0.21319856 0.23110981 0.24235465 0.59591407
000130 78 06 65 3e 67 ad ce 3e 04 5b a1 3e e8 e6 8c 3e
       0.22365749 0.4036667 0.31514752 0.27519917
000140 9b 3a cb 3e ac 41 ad 3e 66 74 c9 3e 7b b2 b1 3e
       0.3969315 0.33839166 0.39346617 0.34706482
000150 14 6f 16 3f 5b 5f ca 3e 1f f0 45 3e b8 c7 fc 3e
       0.5876324 0.39525875 0.1932988 0.49371123
000160 b7 49 5a 3e c2 6e 84 3e 0a 44 0d 3f 74 8b 10 3f
       0.21317182 0.25865752 0.55181944 0.5646279
000170 82 17 8b 3e e5 81 82 3e d9 13 bb 3e 60 2c 74 3e
       0.27166373 0.25489727 0.3653858 0.23845053
000180 a4 24 9e 3e aa d8 ad 3e d2 ef 5a 3e 00 3a 9a 3e
       0.3088733 0.33954364 0.21380547 0.30122375
000190 23 b5 25 3f bd c7 db 3e ca 1e c3 3e 0d 9e db 3e
       0.6472952 0.42925826 0.38109428 0.4289402
0001a0 f7 cc 14 3f 45 3f 96 3e 2e d9 08 3e ca 3c d2 3e
       0.5812525 0.29345146 0.13364097 0.41062003
0001b0 ac fb 19 3f 28 f4 ed 3e 33 aa ed 3e 36 87 8c 3e
       0.60149646 0.4647534 0.46418914 0.27446908
0001c0 f4 e7 a7 3e 84 ac ec 3e 5b b1 da 3e 6e 58 df 3e
       0.32794154 0.4622537 0.42713436 0.43622154
0001d0 3c 2e e6 3e 54 df 8c 3e 19 00 6b 3e 57 94 8a 3e
       0.4495715 0.27514136 0.22949256 0.270663
0001e0 2e 15 9e 3e 72 44 77 3e 8a 11 91 3e 7c ad 2e 3e
       0.30875534 0.24147204 0.28333694 0.17058367
0001f0 52 47 cf 3e b0 d1 ba 3e d4 ed bc 3e ae e2 a7 3e
       0.404841 0.36488104 0.36900198 0.3279013
000200 36 a5 21 3f 38 7e 23 3e 5a a4 a1 3e 80 22 d1 3e
       0.63142717 0.15966117 0.31570703 0.40846634
000210 22 b5 bb 3e 97 24 7c 3e 92 e3 96 3e e4 8b a1 3e
       0.3666163 0.24623333 0.29470497 0.3155204
000220 be b5 77 3e d9 d7 88 3e c7 2b c5 3e 6b 41 69 3e
       0.24190423 0.2672718 0.38509962 0.22778861
000230 58 f7 9f 3e 8c f0 b1 3e 16 ad af 3e 4e 51 e7 3e
       0.31243396 0.34753835 0.34311742 0.45179218
000240 e5 36 af 3e 48 39 a2 3e c8 67 ec 3e cc 15 d5 3e
       0.3422157 0.31684327 0.4617293 0.41618192
000250 df 80 85 3e 37 56 95 3e cb 80 03 3f 9f 04 ad 3e
       0.26074883 0.2916734 0.513684 0.33792588
000260 91 50 c2 3e 68 5e 8f 3e cc 5d 84 3e da 8e 95 3e
       0.37952092 0.28001714 0.2585281 0.2921055
000270 6d 35 9c 3e 61 87 a5 3e 7b 85 8f 3e f9 49 5f 3e
       0.3050951 0.32329848 0.28031525 0.21805562
000280 7d 99 a3 3e 0c c0 97 3e 6f d7 61 3e 55 d5 67 3e
       0.3195304 0.29638708 0.22054838 0.22639973
000290 e9 fd 8e 3e d2 71 d0 3e 41 8a a2 3e 2b 89 9e 3e
       0.27928093 0.40711838 0.31746104 0.30964026
0002a0 15 94 cb 3e 3b 9a b4 3e 50 3d e6 3e 49 12 b0 3e
       0.39761415 0.35273919 0.44968653 0.3438895
0002b0 d8 c7 ba 3e 6d 92 08 3f f2 64 fb 3e f8 b8 72 3e
       0.36480594 0.5334843 0.49100453 0.23703372
0002c0 75 be b8 3e 60 fd e7 3e 17 71 8b 3e bf cb b8 3e
       0.36082807 0.45310497 0.27234718 0.36092946
0002d0 b6 17 a2 3e 22 01 f0 3e 90 d1 5b 3e 0e 5c 1b 3f
       0.31658715 0.46875864 0.2146666 0.6068734
0002e0 bc 74 99 3e f4 9d 6c 3e 32 23 5e 3e 64 5e 94 3e
       0.29971874 0.2310713 0.21693113 0.28978264
0002f0 3c 16 af 3e 97 34 e0 3e 8a 81 30 3e 11 8e b4 3e
       0.3419665 0.43790123 0.17236915 0.35264638
000300 66 a5 8b 3e a4 3c 9e 3e c6 31 8e 3e c3 05 bc 3e
       0.27274626 0.3090564 0.2777235 0.36723146
000310 6a d3 13 3e 28 ff 99 3e f6 01 c6 3e b1 e8 95 3e
       0.14436117 0.3007748 0.3867337 0.29279092
000320 1d 16 83 3e 60 88 ad 3e 1f c7 92 3e a3 ef 91 3e
       0.2560281 0.33893108 0.28667542 0.2850314
000330 b0 f6 9c 3e 85 06 d6 3e 01 07 65 3e 0f 67 cb 3e
       0.30656958 0.4180185 0.22365953 0.39727065
000340 0a 08 f3 3e dc 9c ce 3e 60 8a de 3e 8c 0d 06 3f
       0.4746707 0.4035405 0.43464947 0.5236442
000350 9a 91 63 3e c6 53 f0 3e f0 5e bb 3e 44 e2 b2 3e
       0.22223511 0.46938914 0.3659587 0.34938252
000360 a4 95 ae 3e 79 2d a8 3e 28 a3 bc 3e b2 fd e8 3e
       0.34098542 0.32847193 0.36843228 0.45506054
000370 5f 57 c7 3e b4 aa 99 3e 8d cb 9b 3e 42 58 e7 3e
       0.38933846 0.3001305 0.30428734 0.45184523
000380 fb 8d f0 3e 56 b0 9c 3e 7b bf b9 3e 72 89 2e 3e
       0.46983323 0.30603284 0.362789 0.17044619
000390 ae 71 f1 3e eb 21 84 3e 72 97 e6 3e 9c ca 70 3e
       0.47157043 0.25807127 0.4503742 0.2351479
0003a0 28 7c cd 3e 5e 94 cf 3e 0e 6b f7 3e de c3 ef 3e
       0.40133786 0.40542883 0.48323864 0.46829122
0003b0 00 ef b9 3e b4 e7 f9 3e 87 41 d0 3e 9a 91 98 3e
       0.36315155 0.48809588 0.40674993 0.29798585
0003c0 9c 44 bb 3e 79 47 cb 3e cd cd 7b 3e f6 52 ae 3e
       0.36575782 0.39702967 0.24590226 0.3404767
0003d0 52 e3 96 3e 44 a7 0a 3f c1 5f ab 3e 38 7f 90 3e
       0.29470307 0.5416148 0.33471492 0.2822206
0003e0 c2 ed d5 3e 7f c1 43 3e 27 32 ce 3e b0 23 86 3e
       0.41782957 0.19116782 0.40272638 0.26199102
0003f0 16 87 bc 3e f2 4d 06 3f 87 ba 40 3e bc 72 cc 3e
       0.36821812 0.52462685 0.18821155 0.39931285

running_var f4 [400]
000000 da 03 4e 3e cd 6e 05 3f 08 29 63 3e ce 68 e3 3e
       0.20118657 0.52122194 0.22183621 0.44415897
000010 9c 97 5d 3e d4 d7 84 3e 6f 2a ef 3e 5e 3f 95 3e
       0.21639866 0.25945914 0.46712062 0.29149908
000020 7c f6 d1 3e 3c a3 8c 3e 1d d2 77 3e 79 66 a2 3e
       0.41008365 0.27468288 0.24201246 0.31718805
000030 8e 1c 8c 3e 96 29 b1 3e 25 27 86 3e 31 52 74 3e
       0.27365535 0.3460204 0.2620174 0.23859479
000040 91 3f 41 3e cb bc 39 3f 07 63 7b 3e 0d 72 04 3f
       0.18871905 0.725537 0.24549495 0.5173653
000050 1e 0e b9 3e 72 52 c8 3e e8 f9 a7 3e 1f bd b1 3e
       0.36143583 0.391254 0.3280785 0.347146
000060 f7 35 bf 3e e9 97 96 3e 96 fc d6 3e 83 09 42 3e
       0.3734586 0.29412773 0.41989583 0.18948941
000070 52 0b a7 3e 90 5a 32 3e 65 d3 66 3e 80 41 7d 3e
       0.32625824 0.1741736 0.22541578 0.24732018
000080 24 8b e0 3e 88 fe 88 3e fb 7c 87 3e 66 ca b3 3e
       0.43856156 0.26756692 0.2646254 0.35115355
000090 b6 0f 22 3e 11 4b 6c 3e d2 9f ec 3e 18 4f 78 3e
       0.15826306 0.2307551 0.46215683 0.24248922
0000a0 97 87 a7 3e 09 01 bb 3f a5 db 29 3e 77 0a ab 3e
       0.32720634 1.4609691 0.16587694 0.33406422
0000b0 a3 8f 00 3f c0 3d a5 3e 56 77 d7 3e d4 ab 65 3e
       0.5021917 0.32273674 0.42083234 0.22428828
0000c0 82 12 71 3e aa 6a bc 3e 25 ac 92 3e a4 27 93 3e
       0.23542216 0.36800128 0.2864696 0.2874118
0000d0 cf c5 82 3e e9 b1 80 3e dd e8 9f 3e 07 18 a4 3e
       0.2554154 0.25135735 0.31232348 0.3204958
0000e0 b2 d6 86 3e ec ee 93 3e 2f 9d 7e 3e a3 69 81 3e
       0.26335675 0.2889322 0.24864648 0.25275907
0000f0 2a c5 5b 3f f6 42 ac 3e e3 b9 e5 3e 5d ce ee 3e
       0.85847723 0.33644837 0.44868383 0.46641818
000100 80 4d 4e 3e bf 2c 63 3f 2f 51 6f 3f 25 20 85 3e
       0.20146751 0.8874015 0.9348325 0.26001087
000110 65 3f 55 3e 74 66 76 3e e2 af 28 3f e9 c0 a3 3e
       0.20824964 0.2406252 0.65893376 0.31983116
000120 6f a6 55 3e c5 d4 72 3e 11 19 bf 3e b2 88 c9 3f
       0.2086427 0.23713978 0.37323812 1.5744841
000130 9a 49 42 3e 10 c9 22 3f 64 f2 9b 3e b2 3b b5 3e
       0.1897339 0.6358805 0.30458367 0.35397106
000140 c6 c4 3e 3f 6f fd 9a 3e c6 67 32 3f 19 29 05 3f
       0.74519 0.3027148 0.69689596 0.52015835
000150 c6 81 8d 3f 93 7d c2 3e 2f 5a 7c 3e 39 db c1 3e
       1.1055229 0.3798643 0.24643777 0.37862566
000160 88 2d 38 3e ec ac 90 3e a1 68 36 3f e0 71 f6 3e
       0.17986119 0.2825693 0.712534 0.48133755
000170 2e b5 93 3e 4c 52 85 3e f9 80 eb 3e cb 09 6a 3e
       0.28849167 0.2603935 0.45996836 0.22855298
000180 d8 21 86 3e bc 16 89 3e af f0 44 3e 63 2e 8b 3e
       0.26197696 0.26775157 0.19232439 0.27183828
000190 a7 ad 23 3f 38 50 b7 3e e3 70 c3 3e 75 56 43 3f
       0.6393685 0.3580339 0.38172063 0.763038
0001a0 d8 d9 78 3f 4d 9d 96 3e 18 a5 2a 3e 6e 03 d7 3e
       0.97207403 0.29416886 0.16664541 0.41994804
0001b0 ea a9 b3 3e ff a4 3d 3f 5b 54 f1 3e b9 75 fe 3e
       0.35090572 0.7407989 0.4713467 0.4969919
0001c0 6d f2 6c 3e 9d c3 df 3e 11 d0 06 3f 8e 65 c1 3e
       0.23139353 0.4370393 0.52661234 0.37772793
0001d0 e5 01 f2 3e 60 4a 7a 3e cf e2 65 3e 46 8a 67 3e
       0.4726707 0.24442434 0.22449802 0.22611341
0001e0 ee 3d 90 3e 4f 17 6b 3e 98 50 80 3e 67 57 25 3e
       0.2817225 0.2295811 0.25061488 0.16146623
0001f0 25 88 ed 3e 10 94 a3 3e 8e 91 59 3f 6c 00 a7 3e
       0.46392933 0.319489 0.84987724 0.3261751
000200 bb cc 08 3f e1 fa 30 3e db a2 b2 3e 1c 55 ad 3e
       0.53437394 0.17283203 0.34889874 0.33853996
000210 a5 5f ab 3e 50 ed 78 3e 56 74 57 3e d1 28 6e 3e
       0.33471408 0.24309278 0.21040472 0.23257758
000220 40 51 5d 3e a5 10 52 3e 4b 80 c6 3e 97 cf 54 3e
       0.21613026 0.20514162 0.38769755 0.20782314
000230 39 cc 7a 3e 13 cf 9e 3e 0a 68 63 3e 7f 8d 0c 3f
       0.24491967 0.3101736 0.22207657 0.54903406
000240 ab 9d aa 3e a0 a9 d6 3e a5 30 e6 3e 5f ff 47 3f
       0.33323416 0.4192629 0.44958988 0.7812404
000250 29 f6 73 3e ed ad 59 3e 55 35 80 3f 56 6c 81 3e
       0.23824371 0.21257754 1.0016276 0.25277966
000260 1a 65 d6 3e 5b 4d a8 3e 9f 4c 92 3e cd 1d 85 3e
       0.4187401 0.32871518 0.28574082 0.259993
000270 d8 3c 96 3e 27 1b 8a 3e 27 a6 a7 3e b8 d5 7d 3e
       0.29343295 0.2697384 0.32743952 0.24788558
000280 2a 69 a7 3e 83 78 a8 3e 6c 5b 25 3e 7a a8 4c 3e
       0.3269742 0.32904443 0.16148156 0.19986144
000290 ac 9c 84 3e f2 d6 3a 3f 4d 74 a0 3e ff 2d 9b 3e
       0.2590078 0.7298423 0.3133873 0.3030853
0002a0 48 a6 0f 3f df 77 ba 3e b2 09 88 3f 82 e8 ee 3e
       0.561131 0.3641958 1.0627959 0.46661764
0002b0 56 66 28 3f a0 0b 4f 3f 52 d5 91 3f 7a 7b a8 3e
       0.6578115 0.80877113 1.1393225 0.32906705
0002c0 f7 0b e4 3e c6 2d cf 3e 47 d6 54 3e 75 06 be 3e
       0.44540378 0.4046461 0.20784865 0.371143
0002d0 c2 b9 81 3e d5 e7 18 3f 49 8e 61 3e 21 45 49 3f
       0.25337034 0.5972875 0.22026934 0.7862111
0002e0 cf 69 98 3e a4 a0 89 3e 6e 6b 4c 3e 8e 13 80 3e
       0.29768226 0.26880372 0.19962856 0.2501492
0002f0 81 29 3c 3f 63 65 82 3f 4b fd 58 3e 9c d5 a9 3e
       0.7350083 1.0187191 0.21190374 0.33170784
000300 ba 8f 78 3e cb 25 a7 3e e1 c5 aa 3e 6a 46 16 3f
       0.24273577 0.3264602 0.33354095 0.58701193
000310 5a 9f 14 3e f7 7b 92 3e 29 f3 bb 3e 24 9d 9f 3e
       0.14513913 0.28610203 0.36708954 0.31174576
000320 07 cf 5b 3e 71 14 9f 3e 75 06 8c 3e 29 16 a3 3e
       0.21465693 0.31070283 0.27348676 0.31852844
000330 29 88 84 3e f9 c2 01 3f 97 c6 71 3e 6e fc b1 3e
       0.25885132 0.5068813 0.23610912 0.347629
000340 18 d0 da 3e 5c dd b5 3e c9 e4 b3 3e 4c 76 fa 3e
       0.42736888 0.35520446 0.35135487 0.48918378
000350 4f 0f 30 3e 20 5b 82 3f e2 ca ef 3e 44 bc a1 3e
       0.1719334 1.0184059 0.46834475 0.31588948
000360 33 af 85 3e a6 ee 92 3e 99 36 c2 3e c4 b3 f3 3e
       0.2611023 0.286977 0.3793228 0.47598088
000370 3d 39 ce 3e b1 aa 8a 3e f8 5e 8a 3e 86 55 46 3f
       0.40278044 0.27083352 0.2702558 0.7747425
000380 7f ba 41 3f 6f de a5 3e 5d ff ad 3e eb 3a 46 3e
       0.75675195 0.32396266 0.3398389 0.19358413
000390 fd 1e 26 3f 66 07 7c 3e fd 85 7d 3f 61 e6 3c 3e
       0.64891034 0.24612197 0.99032575 0.18447258
0003a0 2b 56 02 3f 64 7f 7a 3f a1 b6 0d 3f 89 09 14 3f
       0.5091273 0.9785063 0.55356795 0.5782705
0003b0 df 5f f6 3e fe 32 65 3f 62 09 d8 3e 12 f2 d5 3e
       0.4812002 0.8953093 0.4219466 0.41786247
0003c0 8b 81 cf 3e ac ee 03 3f 10 37 dc 3e e0 19 f4 3e
       0.4052852 0.5153606 0.4301076 0.4767599
0003d0 43 0a ac 3e 8e 14 c5 3f 29 6f a0 3e ad fc 86 3e
       0.3360158 1.5396898 0.31334808 0.2636465
0003e0 49 03 c8 3e 10 8b 57 3e e1 73 33 3f 4c 07 a5 3e
       0.39065006 0.21049142 0.7009869 0.3223213
0003f0 ad 1d 9b 3e a8 be f3 3e 44 a2 25 3e 89 0b 9d 3e
       0.30296078 0.47606397 0.1617518 0.30672863

weight f4 [200, 400]
000000 d1 b5 be 3c 69 3b 0f be e7 c7 09 3d ee 7d 31 3e
       0.023280056 -0.13987507 0.033637907 0.17333195
000010 3c 80 74 bd 39 1c 70 bd a8 4e fe bd 5f e5 b5 bd
       -0.059692606 -0.058620665 -0.12417346 -0.0888164
000020 b7 9d fd bd 92 12 2e 3e fa 0a 6e bc ee 25 17 3d
       -0.12383597 0.16999272 -0.014528984 0.036901407
000030 90 62 97 be 5d 9a d9 bc 18 e6 2d 3e ed ed 4c be
       -0.29567385 -0.026562864 0.16982305 -0.20012636
000040 7b f3 4c 3d 85 25 b1 bc 71 08 ea bc 7e 60 12 be
       0.05003689 -0.021624336 -0.028568478 -0.14294621
000050 90 b4 86 bc 9a ae cd 3d 87 bf 9f 3c 99 fc 1a be
       -0.01644352 0.10043068 0.019500507 -0.15135421
000060 3e ac ef bd cf 87 b6 bd a9 52 37 be a6 2d a1 bd
       -0.117027745 -0.08912622 -0.17902626 -0.07870035
000070 9f ac 11 be b1 ca 18 3d 34 02 f5 bd 60 85 a9 bd
       -0.14226006 0.037302677 -0.11963311 -0.082773924
000080 e6 95 d9 bc 9a a1 33 bd e0 bb 96 bd 1b bf 8d 3d
       -0.026560735 -0.043855287 -0.07360053 0.06921216
000090 a6 69 12 bd 20 02 e7 3d 16 ed a2 bd 80 73 e6 bc
       -0.035745285 0.11279702 -0.07955377 -0.028131247
0000a0 48 0d 8a bd 58 71 1a be d7 db 1b bd e6 10 92 3c
       -0.067408144 -0.150823 -0.038051452 0.017830323
0000b0 60 89 e5 bb d8 4a e6 3d c1 c0 1d bd c8 0e b8 bd
       -0.0070049018 0.11244744 -0.038513903 -0.08987194
0000c0 22 6e 9d 3d 5a 8c 47 3e bc 63 21 bd b2 a3 06 3c
       0.07687022 0.19487134 -0.039401755 0.008217739
0000d0 72 7f 96 bd 58 64 cd 3d 5c 4b 40 bd f4 5e 6b 3c
       -0.07348527 0.10028905 -0.04694687 0.0143659
0000e0 d8 e1 b0 3d fe df eb bd 0d c8 63 3d 35 93 b7 3d
       0.08636826 -0.115173325 0.055610705 0.089636244
0000f0 85 9b cf 3d 68 42 dc bd 5e 1d 57 3c 39 fb cb 3b
       0.10137085 -0.107548535 0.01312956 0.0062250164
000100 be 92 4d 3d e9 28 3f bc 30 0d c8 3c 4a 6f 29 3e
       0.050188772 -0.011667469 0.02442035 0.1654636
000110 e1 81 47 3c b8 12 76 be a0 5f 13 3e cd 22 bc 3d
       0.012176962 -0.24030578 0.14391947 0.09186325
000120 f5 7a 41 3c fa d2 05 3e a3 d9 bc bd 8a b5 36 bd
       0.0118091 0.13068762 -0.092211984 -0.044606723
000130 44 ce bd bd 67 a5 23 be 02 18 96 3c 9a 14 28 3e
       -0.09267858 -0.15981065 0.018321995 0.16414109
000140 b8 a0 ee bd b5 42 e6 3c ca 80 fe 3c 6f fa 2f bd
       -0.116517484 0.02810798 0.03106727 -0.04296344
000150 3a ba 1b be 07 cb fc 3d bc ed bb 3d 48 f2 09 3d
       -0.15207759 0.12343412 0.091762036 0.033678323
000160 25 9e f4 3d 72 56 95 3c 5d 92 23 3d 49 7d 96 bd
       0.11944226 0.018229697 0.039934505 -0.07348115
000170 c0 3d 84 3e b4 58 0f be 63 72 58 3b 10 68 2a be
       0.25828362 -0.13998681 0.0033027164 -0.16641259
000180 14 31 19 be 3b 6f 4d 3d 2d 69 63 bd 05 35 c8 bc
       -0.14960128 0.050154906 -0.055520225 -0.024439344
000190 42 62 e3 bc 4d e0 6b 3d 9a 4d d5 bd 9d 87 16 be
       -0.027756814 0.057586957 -0.10415192 -0.1470017
0001a0 0f 6f 9c bc 91 b4 3d 3d 05 ee 3d 3e 3f 7f 29 be
       -0.019095926 0.04631478 0.18547828 -0.16552447
0001b0 65 8e 17 bc 19 98 e5 bd 78 13 0e bd 2c 70 d4 bd
       -0.009250258 -0.11210651 -0.034686536 -0.103729576
0001c0 61 3f ce 3d 41 82 67 3d 11 67 07 be 19 03 d0 3d
       0.10070682 0.056520704 -0.1322291 0.10156841
0001d0 fc 56 f6 bd ce ae d5 bd be 96 cb bb f2 5f 8f 3d
       -0.1202831 -0.10433732 -0.006213038 0.07000722
0001e0 f6 e1 88 3c 16 6b 16 3d 7c 85 03 be 01 0f de 3d
       0.01670931 0.03672322 -0.12843889 0.108427055
0001f0 4a 41 30 be 5a 16 84 be ec 91 79 3d 56 b4 da 3d
       -0.17212406 -0.25798303 0.060930178 0.106789276
000200 eb d5 8c bd 1c c5 1e be f0 2d 19 3c 0d 31 e0 bd
       -0.06876739 -0.15504879 0.009349331 -0.10946856
000210 7e 0e 27 3e 6f b1 d6 3d 1e 9b 26 3d 40 75 ad 3d
       0.16314122 0.104830615 0.040675275 0.08469629
000220 c6 02 63 bc 10 3c fa b9 7f f6 5c 3d c3 37 b8 bd
       -0.013855642 -0.00047728466 0.053946014 -0.08995011
000230 5f 21 2f 3c 38 bd c0 bd e5 df 2d be cd df 7b bd
       0.010689109 -0.094110906 -0.1697994 -0.06149273
000240 d7 b0 07 3e ea a1 19 3e 86 dd 70 3d ec fb da 3d
       0.13251053 0.15003172 0.05880501 0.106925815
000250 cc f4 84 3a 02 b6 04 3e 84 d4 56 3d 10 d1 e0 3d
       0.0010143756 0.12960055 0.052448764 0.109773755
000260 af db f7 bd 94 05 5d 3d 39 35 45 be 0d 03 f0 bd
       -0.12102448 0.053960398 -0.19258584 -0.11719332
000270 36 73 bc 3d b4 1d 10 3e 43 69 ab bd cc 47 93 bd
       0.09201662 0.14073831 -0.083696865 -0.071914285
000280 23 76 63 bd d8 70 d4 3d ad 4a e2 3d b5 ee 0e 3e
       -0.055532586 0.10373086 0.110493995 0.13958247
000290 02 6e 06 3e 8f a8 2d 3c e7 4a 6f be 19 a6 a0 be
       0.13127902 0.0105992695 -0.23368417 -0.31376722
0002a0 e0 27 df bd 88 f9 dc 3a 63 1f bd bc 88 b1 af 3c
       -0.108962774 0.0016859034 -0.023086255 0.021446958
0002b0 5d d1 3c be 0c e9 4a be 4e d8 fb bd c6 37 66 3d
       -0.18439241 -0.19815463 -0.12297116 0.056205533
0002c0 8a c6 9c bc d4 78 1b be fa 0d 87 3c c1 b5 2f 3e
       -0.01913764 -0.15182811 0.016486157 0.17159177
0002d0 32 49 84 bd 2a 82 97 bd e2 97 15 be 95 6a 9d 3d
       -0.064592734 -0.07397874 -0.1460872 0.076863445
0002e0 06 53 a4 bd 88 13 1b be ea 18 87 3d 39 6f aa 3d
       -0.08023648 -0.1514417 0.06596549 0.08321995
0002f0 4b 06 57 be 79 a4 0d 3e d6 73 71 be 75 22 73 3d
       -0.20998494 0.13832273 -0.23579344 0.059359033
000300 8c fb fb bb 97 c9 12 be e8 77 99 bd 6c a7 e3 3c
       -0.007689899 -0.14334713 -0.074935734 0.027789794
000310 3e 09 95 bd 67 ca 06 be aa 50 02 be 20 2d f1 3d
       -0.072771534 -0.13163148 -0.12726083 0.11776185
000320 71 34 fb bb bf b9 ae bc 27 4f 0b bd 91 da 91 bd
       -0.0076661636 -0.021328805 -0.034011032 -0.07121766
000330 31 4b a1 bd de f2 39 3e 6d c7 24 3c 5a f5 31 3e
       -0.0787567 0.18159053 0.010057312 0.1737875
000340 6e 80 97 bd 30 31 06 3d 6c a3 c0 bd c7 3d 20 bd
       -0.07397543 0.032761753 -0.0940617 -0.039121415
000350 2c 95 45 3d 3e 9a 1e 3e 16 88 4d bb a5 8b b5 3d
       0.048237965 0.15488526 -0.003136163 0.08864526
000360 3a 2a 39 bd 3b 1c 06 3d 9c 42 c2 bd 1d 91 0e 3e
       -0.045206286 0.032741766 -0.09485361 0.13922544
000370 8b 52 2b 3e b3 eb 16 3e aa 31 84 bd a2 b2 99 3c
       0.16730706 0.1473835 -0.06454785 0.018761937
000380 7f 97 62 3d d7 a5 1f 3d b9 a8 a7 3d 6f 55 a7 3d
       0.05532026 0.038976517 0.08186478 0.08170592
000390 ca 14 b1 3b 34 70 a5 bd 61 ca 2f 3e ac bd 59 3e
       0.0054040896 -0.08078042 0.17167045 0.2126376
0003a0 b1 0b 9f 3d 1c cb e1 bc e0 91 a4 be 19 e8 81 be
       0.07765902 -0.02756267 -0.32142544 -0.2537239
0003b0 5a 7d 16 be ce 3b 95 3c c7 61 1e be 61 e4 05 be
       -0.14696255 0.018216994 -0.15466987 -0.13075401
0003c0 41 93 b1 3d 20 5d 6f bc ea 16 e2 3d e4 c3 3f 3c
       0.086706646 -0.014609605 0.11039527 0.011704419
0003d0 47 f3 d5 3c fa b1 26 be 38 2d f4 bb 52 ca 21 3d
       0.02611698 -0.1627883 -0.0074516796 0.03949959
0003e0 de 9b 69 bd 8c 46 3a 3a 87 bb 19 bd 09 89 d2 3d
       -0.057033412 0.0007105849 -0.037532356 0.10280044
0003f0 84 1b a2 3b ff 91 e2 bc 8a 56 9c 3d e7 d0 14 bc
       0.004947128 -0.027657507 0.076336935 -0.009083009

weight f4 [200]
000000 e9 7f 5f 3f fe 74 7d 3f ec 93 84 3f d0 2e 89 3f
       0.8730455 0.9900664 1.0357642 1.0717411
000010 d3 21 85 3f 44 d3 6e 3f 7a 0a 62 3f 9d 52 98 3f
       1.0400947 0.93291116 0.88297236 1.1900212
000020 50 07 4a 3f ed 55 4f 3f ad 9c 83 3f ae c5 90 3f
       0.7891741 0.8099049 1.0282189 1.1310327
000030 e3 44 64 3f ac 60 85 3f 31 91 85 3f 99 03 77 3f
       0.8916761 1.0420127 1.0434934 0.96489865
000040 82 13 65 3f 2c 7a 5f 3f 87 2d 89 3f 5b 57 a1 3f
       0.8948289 0.87295794 1.0717019 1.2604784
000050 4f 2b 56 3f 17 10 8b 3f ad b1 7b 3f cd 0a 52 3f
       0.83659834 1.0864285 0.98317987 0.8204773
000060 92 c9 8b 3f a4 3c 8b 3f 4c 85 45 3f 14 72 5c 3f
       1.0920889 1.0877881 0.7715652 0.8611157
000070 b1 d0 94 3f e7 30 26 3f bb 82 9a 3f 78 3f 9d 3f
       1.1626188 0.6491837 1.2071146 1.2284994
000080 9b 64 73 3f bf 14 9f 3f fb db 81 3f 4a ad ae 3f
       0.95075387 1.2428206 1.0145258 1.3646634
000090 f7 47 8a 3f 59 21 a6 3f 26 55 7e 3f 60 89 74 3f
       1.0803212 1.2978927 0.99348676 0.9552212
0000a0 62 71 80 3f d8 bb 2c 3f 12 66 6e 3f 16 1e 68 3f
       1.0034602 0.67474127 0.93124497 0.9067091
0000b0 fb f8 95 3f 8b c1 68 3f 90 a8 b9 3f 7d 75 53 3f
       1.1716608 0.90920323 1.4504566 0.8260115
0000c0 dd e1 79 3f 6f 73 5b 3f 00 d6 71 3f 88 00 5d 3f
       0.97610265 0.8572301 0.94467163 0.86328936
0000d0 ab 70 7b 3f f6 a7 56 3f 0f 02 84 3f 0b 48 80 3f
       0.9821879 0.8385004 1.0313128 1.0021986
0000e0 77 8e 29 3f d6 03 7a 3f 78 4e 81 3f 96 d0 82 3f
       0.6623301 0.97662103 1.0102072 1.0219905
0000f0 f2 06 6b 3f 25 8e 4b 3f be f1 9c 3f 73 a0 9b 3f
       0.9180747 0.7951377 1.2261274 1.215834
000100 b5 21 50 3f 18 21 8a 3f 0c c8 85 3f b6 da 8d 3f
       0.8130143 1.079135 1.0451674 1.108237
000110 21 cb 87 3f e1 e6 47 3f ec 21 82 3f 53 3a 83 3f
       1.0608865 0.7808667 1.0166602 1.0252174
000120 41 b3 70 3f 6e 72 87 3f e8 20 7a 3f 0d 76 9d 3f
       0.9402352 1.0581796 0.9770646 1.2301651
000130 fa 68 92 3f 6c c3 33 3f f6 cf 6e 3f 95 6e 7c 3f
       1.1438286 0.70220065 0.93286073 0.98606235
000140 a2 96 9e 3f 38 60 6c 3f b9 b2 76 3f 68 6c 80 3f
       1.238972 0.9233432 0.9636646 1.0033083
000150 1d 99 5c 3f 22 60 68 3f 53 2a 8a 3f d6 b0 32 3f
       0.8617113 0.9077169 1.0794166 0.6980108
000160 43 7e 62 3f 19 c0 4f 3f 68 cd 82 3f a8 c7 69 3f
       0.8847391 0.8115249 1.0218935 0.91320276
000170 80 3c 85 3f 2d 71 66 3f 5d 4a 99 3f 95 b6 9d 3f
       1.0409088 0.9001644 1.1975819 1.2321345
000180 e8 5b 65 3f 30 bf 76 3f 17 26 9c 3f 4f 8c 9a 3f
       0.8959336 0.9638548 1.2199124 1.2074069
000190 83 31 83 3f e5 19 90 3f 7a f4 52 3f 29 42 35 3f
       1.0249485 1.1257902 0.8240429 0.7080408
0001a0 94 a3 72 3f e2 64 80 3f 62 8b 75 3f e1 64 84 3f
       0.9478085 1.0030787 0.95915806 1.0343286
0001b0 1f 8e 90 3f e9 bd 62 3f 75 99 98 3f 3c 88 82 3f
       1.1293372 0.8857103 1.1921831 1.0197825
0001c0 a0 44 79 3f e7 02 88 3f 47 b8 9a 3f 76 dc 89 3f
       0.9737034 1.0625886 1.2087487 1.0770404
0001d0 4c 8b 34 3f cd 86 61 3f 0f 25 4a 3f 4e 5a 5a 3f
       0.7052505 0.88096315 0.78962797 0.85294044
0001e0 96 cd 71 3f ea f0 c7 3f 7f de a5 3f c5 91 66 3f
       0.94454324 1.5620396 1.2958525 0.90066177
0001f0 b8 92 81 3f ea c7 92 3f 1d 1f 9a 3f 02 a5 5d 3f
       1.01229 1.1467259 1.2040745 0.86579907
000200 20 da 8b 3f 8d a2 46 3f 12 2c 78 3f 1d bc 28 3f
       1.0925941 0.7759178 0.96942246 0.6591204
000210 c0 cd 67 3f 2f 94 72 3f 43 9d a0 3f 81 02 6e 3f
       0.90548325 0.9475736 1.2547992 0.9297257
000220 ad d0 5b 3f b4 a1 92 3f 60 d8 ab 3f 65 0e 5f 3f
       0.8586529 1.1455598 1.3425407 0.8713134
000230 ac 19 76 3f 2f d0 6d 3f fc c9 7e 3f 5b 64 91 3f
       0.9613292 0.9289579 0.99526954 1.1358751
000240 fd 5f 98 3f e0 f3 96 3f 3a 01 5a 3f 05 45 90 3f
       1.1904293 1.1793175 0.8515812 1.1271063
000250 21 c8 86 3f 18 c7 b4 3f d7 2f 83 3f 76 6f 33 3f
       1.0529824 1.4123259 1.0248975 0.7009195
000260 b7 f4 24 3f f0 99 81 3f 97 1a 61 3f 77 31 6b 3f
       0.64435905 1.0125103 0.879312 0.9187235
000270 a3 76 7b 3f 06 2e 99 3f aa dd 6c 3f b5 7f 8b 3f
       0.982279 1.196717 0.9252573 1.0898348
000280 e2 3c 7b 3f 2a 01 94 3f 5d 9f 5e 3f f9 53 87 3f
       0.98139775 1.1562855 0.8696192 1.0572501
000290 78 08 7c 3f 73 ad 8b 3f fb e2 7e 3f c8 58 93 3f
       0.9845042 1.0912308 0.99565095 1.1511469
0002a0 0e c2 8a 3f a5 a8 77 3f 25 b2 93 3f c4 0b 92 3f
       1.0840471 0.96741706 1.153874 1.140984
0002b0 1d 98 92 3f 11 55 5b 3f b5 a7 55 3f 46 57 85 3f
       1.1452671 0.85676676 0.83459026 1.0417259
0002c0 63 af 8c 3f 3b 70 54 3f b6 7b 87 3f bb cf 77 3f
       1.0991024 0.8298375 1.0584629 0.96801347
0002d0 ed a0 44 3f c9 56 70 3f b6 18 6b 3f 4d 4e 85 3f
       0.76808053 0.93882424 0.9183458 1.041452
0002e0 5c 17 8f 3f ef b4 8f 3f d3 d4 ab 3f 46 47 80 3f
       1.1179004 1.1227092 1.3424324 1.0021751
0002f0 4f 71 8e 3f 90 3b 7b 3f 42 f2 7c 3f f7 85 98 3f
       1.1128329 0.9813776 0.98807156 1.1915883
000300 49 f6 69 3f ce cc 76 3f 43 1b 26 3f 97 21 3c 3f
       0.91391426 0.9640626 0.6488535 0.73488754
000310 82 15 73 3f ad 9d 53 3f d8 c2 7e 3f 44 41 89 3f
       0.94954693 0.8266247 0.9951606 1.0723042
